…
in the begining of model_train: ../../data/result/my_model.CNN_3_reg-tmb20200105
-------------------------before split in Cross_validation:
----------------save_model_address: ../../data/result/my_model.CNN_3_reg-tmb20200105
|||||||||||||||before eval:
label_types: 2
level 1 convolution number(L1): 4 convolution size: 3
level N pooling size: 2
level N convolution number(L2): 8 convolution size: 3
Model: "sequential"
_________________________________________________________________
Layer (type)                 Output Shape              Param #   
=================================================================
conv2d (Conv2D)              (None, 510, 510, 4)       112       
_________________________________________________________________
max_pooling2d (MaxPooling2D) (None, 255, 255, 4)       0         
_________________________________________________________________
conv2d_1 (Conv2D)            (None, 253, 253, 8)       296       
_________________________________________________________________
max_pooling2d_1 (MaxPooling2 (None, 126, 126, 8)       0         
_________________________________________________________________
conv2d_2 (Conv2D)            (None, 124, 124, 8)       584       
_________________________________________________________________
flatten (Flatten)            (None, 123008)            0         
_________________________________________________________________
dense (Dense)                (None, 2)                 246018    
=================================================================
Total params: 247,010
Trainable params: 247,010
Non-trainable params: 0
_________________________________________________________________
None
|||||||||||||||before compile:
|||||||||||||||before fit:
Train on 48 samples, validate on 48 samples
Epoch 1/10
 2/48 [>.............................] - ETA: 35s - loss: 0.6933 - acc: 
…
